models/house_prices_prediction_model_0.pth (torch, 849144 bytes, 5 tensors)

layer_stack.0.weight f4 [512, 396]
0	0x3ccc52e6	0.024941873
1	0x3cc5a75e	0.024127658
2	0xbc40e202	-0.011772634
3	0x3d04d679	0.0324311
4	0xbcdbf77c	-0.026851408
5	0xbba902d2	-0.005157807
6	0xbd105bc0	-0.03524375
7	0x3c5f1172	0.013614999
8	0x3cf13980	0.029446363
9	0xbd5827ea	-0.05277244
10	0x3ce12615	0.02748398
11	0xbbde36a7	-0.0067814174
12	0x3ca2fa58	0.019894764
13	0xbc22d6a5	-0.009938871
14	0x3c0f4f4a	0.008746931
15	0xbcb060dc	-0.021530561
16	0x3cbc4937	0.02298413
17	0xbbe2e477	-0.006924208
18	0xbd2143c6	-0.039371274
19	0xbb499375	-0.0030758057
20	0xbd0efc8b	-0.034908812
21	0xbbc11b99	-0.0058931825
22	0xbd16999c	-0.036767587
23	0x3c874466	0.016512107
24	0xbd61cb18	-0.055125326
25	0xbd120ab5	-0.035654742
26	0xbcf456e4	-0.029826589
27	0xbd3d0015	-0.046142656
28	0xbc3182d3	-0.010834414
29	0xbd7ec557	-0.062199917
30	0x3cef546d	0.029215062
31	0xbd2257ba	-0.039634444
32	0x3cb9e367	0.022691442
33	0xbbb89390	-0.005632825
34	0xbd0029b0	-0.031289756
35	0x3c68e66c	0.014215093
36	0xbbbb0ddb	-0.005708439
37	0x3cd01fd2	0.025405798
38	0xbc565fa6	-0.013084328
39	0xbd001f33	-0.031279754
40	0x3af51a94	0.0018699938
41	0xbce48e14	-0.02789978
42	0x3bca8cff	0.006181359
43	0x3d0de7d9	0.034644935
44	0x3c6593f4	0.014012326
45	0xbd14a7ee	-0.036292963
46	0x3c4db685	0.012555723
47	0xbbb7e9e0	-0.005612597
48	0x3c48da4f	0.01225908
49	0xbd31ef45	-0.043441076
50	0xbd827872	-0.06370629
51	0xbd163b45	-0.036677618
52	0xbd56c548	-0.052434236
53	0x3cce9e4b	0.025221964
54	0x39c38b35	0.00037297016
55	0x3bc16d4f	0.005902923
56	0x3a655a65	0.00087491266
57	0xbc8a13fb	-0.01685523
58	0x3ccb5c63	0.024824327
59	0xbd48ce3e	-0.049024813
60	0xbc54a6d1	-0.012979225
61	0xbd4eb014	-0.05046089
62	0x3b5c9f0a	0.003366413
63	0xbce623d9	-0.028093265
64	0x3c5b35dc	0.01337954
65	0xbc916c54	-0.01775185
66	0x3cd35d44	0.025801308
67	0xbd1a8cf5	-0.037732083
68	0xbd135c2b	-0.03597657
69	0xbd2e00a3	-0.042481076
70	0x3d42c361	0.04754961
71	0x3ba87390	0.0051407292
72	0x3d04c0d9	0.032410476
73	0xbd578365	-0.052615542
74	0xbd7f598b	-0.062341254
75	0xbd5c1d2c	-0.053738758
76	0xbd403918	-0.04692945
77	0x3b9b7b81	0.0047449474
78	0x3bad68cc	0.005292034
79	0x3cda9c28	0.02668579
80	0xbd1e1d4a	-0.03860215
81	0xbd0c8528	-0.034306675
82	0x3c222c79	0.009898298
83	0xbd09a777	-0.033606973
84	0x3c643b4b	0.013930152
85	0xbccb005c	-0.024780445
86	0x3c4d3a1d	0.012526062
87	0xbd55d9c2	-0.052209623
88	0xbd23f958	-0.040032715
89	0x3b66ff3d	0.0035247349
90	0xba378017	-0.0006999983
91	0xbcb7be81	-0.022429707
92	0x3c6604b6	0.014039209
93	0x3d0bed23	0.034161698
94	0xbd35793b	-0.044305068
95	0xbd0e2560	-0.034703612
96	0x3d070f95	0.032973845
97	0xbcef3e34	-0.029204465
98	0xbd0853f3	-0.033283185
99	0xbd813206	-0.06308369
100	0xbd20c1b6	-0.039247237
101	0x3b1515bb	0.0022748548
102	0xbcb61383	-0.0222261
103	0xbd4e20f5	-0.0503244
104	0xbc6a4cbc	-0.014300521
105	0xbd4ae4d6	-0.04953464
106	0xbd4bf240	-0.049791574
107	0xbd2d6944	-0.042336717
108	0xbd34257c	-0.04398106
109	0xbd3d55bc	-0.04622434
110	0x3d267d02	0.04064656
111	0xbbaeaad1	-0.0053304215
112	0xbaccb4e6	-0.0015617877
113	0xbd7d88a5	-0.061897893
114	0xbd3e3376	-0.046435796
115	0xbcf92812	-0.030414615
116	0xbbeb3728	-0.007178206
117	0xbd63a1f2	-0.055574365
118	0xbd147f50	-0.036254227
119	0xbd33f181	-0.043931488
120	0xbc775b6f	-0.015097483
121	0xbd0b5458	-0.034015983
122	0xbc6a63b0	-0.014305994
123	0xbd47906a	-0.04872171
124	0xbd0d482b	-0.034492653
125	0xbd29da5e	-0.041468017
126	0xbcffe5d1	-0.031237515
127	0xbd3eecb8	-0.04661247
128	0x3cdfafa6	0.027305435
129	0xbcdd4c8a	-0.027014036
130	0x3ce5a8b8	0.028034553
131	0x3a5d13f6	0.00084334554
132	0xbd5d020b	-0.053957026
133	0x3c95cfd5	0.018287579
134	0xbcf092c0	-0.02936685
135	0xbd0d795c	-0.034539565
136	0xbd6ab814	-0.057304457
137	0xbd7bd61d	-0.06148349
138	0xbb2bd351	-0.0026218484
139	0xbcd55cda	-0.026045252
140	0x3c07256b	0.008248667
141	0xbd63f100	-0.055649757
142	0x3cb6541b	0.022256901
143	0xbd3568c6	-0.044289373
144	0xbcca0f3f	-0.024665473
145	0xbb719fbb	-0.0036868888
146	0x3c36ade1	0.011149854
147	0x3cc1bf7a	0.023650873
148	0x3d089963	0.033349406
149	0xbd4c0f76	-0.049819432
150	0x3be50db9	0.0069901613
151	0xbd1a8169	-0.03772107
152	0xbc979cea	-0.01850744
153	0xbd5eb1ee	-0.054368906
154	0x3d06c911	0.032906596
155	0xbd542d82	-0.051801212
156	0x3c669e7f	0.014075874
157	0x3a99c84a	0.0011732664
158	0x3b630285	0.0034638953
159	0xbd07d9fd	-0.033166874
160	0x3cf34c7c	0.029699557
161	0xbbb94bd1	-0.00565479
162	0xbc078d80	-0.008273482
163	0xbd75975a	-0.059958793
164	0x3ba8e3e2	0.005154119
165	0xbca72776	-0.020404559
166	0xbd1735b6	-0.036916457
167	0x3cdea54d	0.02717843
168	0xbb9b9ceb	-0.0047489307
169	0xbd2e7594	-0.0425926
170	0xbd1ce0ad	-0.038300205
171	0xbc90bdb1	-0.017668577
172	0x3c3a1459	0.01135739
173	0xbce146b8	-0.027499542
174	0xbd2dc680	-0.042425632
175	0xbd0396ca	-0.032126226
176	0xbd5921ed	-0.05301087
177	0x3ba5aa4b	0.005055701
178	0x3cc017f7	0.023448927
179	0xbd81ba9c	-0.06334421
180	0x3c3f37e0	0.0116710365
181	0x3c241543	0.010014835
182	0xbb4388f0	-0.002983626
183	0xbce83449	-0.028345244
184	0x3c786eac	0.015163105
185	0x3c7d0347	0.015442676
186	0x3b0cc29a	0.0021478296
187	0xbcbad1bb	-0.022805085
188	0xbceb8a27	-0.0287524
189	0xbb873aa6	-0.0041268645
190	0xbcbe7b49	-0.023252146
191	0xbce0e264	-0.027451701
192	0x3c83f094	0.016105928
193	0x3cf053be	0.029336806
194	0xbc9f49b6	-0.019444328
195	0xbcc4ad37	-0.024008377
196	0x3a403a45	0.00073329016
197	0xbc7028cf	-0.014658167
198	0xbb7da212	-0.0038701338
199	0xbaf68c1e	-0.0018810069
200	0xbd7151ad	-0.058915783
201	0xbd1007ad	-0.03516357
202	0x3d2d5644	0.042318597
203	0x3b9343aa	0.00449415
204	0xbc4f5b05	-0.012655978
205	0xbd241329	-0.040057335
206	0xbd31a52b	-0.043370407
207	0xbd6d7cef	-0.057980474
208	0xbd0032e8	-0.031298548
209	0x3c8b053e	0.016970273
210	0x3cafe559	0.021471666
211	0x3bea9d47	0.007159862
212	0xbd700a4d	-0.058603574
213	0xbd3a1b6e	-0.045436315
214	0xbcc62556	-0.024187725
215	0x3d069ede	0.03286635
216	0xbbd5d5eb	-0.006525745
217	0xbcea8b8d	-0.028630996
218	0x3c35a5a9	0.01108686
219	0xbd102d88	-0.035199672
220	0xbd44b0ab	-0.048020046
221	0x3c99556e	0.018717494
222	0xbd12e080	-0.03585863
223	0xbccd07f8	-0.025028214
224	0xbd80896b	-0.062762104
225	0x3c899f83	0.016799694
226	0x3ccf4492	0.025301252
227	0x3af66cb8	0.0018800711
228	0xbd4b53a9	-0.04964033
229	0xbd7527df	-0.059852477
230	0xbd5e114a	-0.054215707
231	0x3cbba99a	0.02290802
232	0x3c3a09e7	0.0113549
233	0x3d0e2b36	0.034709178
234	0x3c27d67a	0.010244006
235	0x3b82daba	0.0039933594
236	0xbc646eb5	-0.01394241
237	0xbd2e357e	-0.042531483
238	0xbd64a98a	-0.055825748
239	0xbd67210b	-0.056427997
240	0x3b94b82e	0.0045385575
241	0xbd1deb3a	-0.038554408
242	0xbccd77cd	-0.02508154
243	0xbd37f2b6	-0.0449092
244	0xbcac51f8	-0.02103518
245	0xbd3f8335	-0.04675599
246	0xbd1a10ac	-0.037613556
247	0x3a4ac127	0.00077344704
248	0xbcf63282	-0.03005338
249	0x3c7b49b0	0.015337393
250	0xbcfdfd2e	-0.031004515
251	0xbd559cb8	-0.05215141
252	0xbccbf770	-0.02489826
253	0xbd18f3e7	-0.03734198
254	0xbd004fe4	-0.03132619
255	0xbd738c91	-0.059460226

layer_stack.0.bias f4 [512]
0	0x3ac23d35	0.0014819267
1	0xbee8c93f	-0.4546604
2	0xbed9a388	-0.42507577
3	0xbec55ae6	-0.38545913
4	0xbebceede	-0.3690099
5	0xbec9d04e	-0.39416736
6	0xbec46852	-0.3836084
7	0x3d194188	0.03741601
8	0xbebb1583	-0.3653985
9	0x3bcf4a6e	0.0063260114
10	0xbed160e8	-0.40894246
11	0xbc01733a	-0.007901007
12	0xbeca23d2	-0.39480454
13	0xbc9bf0ac	-0.01903566
14	0xbedfe030	-0.4372573
15	0xbc331ab7	-0.010931662
16	0xbec4653f	-0.38358495
17	0xbede2a7e	-0.43391794
18	0xbee002b0	-0.4375205
19	0xbecd17d2	-0.40057236
20	0xbeb6c36f	-0.3569598
21	0xbec6c5d3	-0.38822803
22	0xbeb6c835	-0.3569962
23	0xbecca22c	-0.39967477
24	0xbecd5699	-0.4010513
25	0xbeba3982	-0.36372
26	0xbed6c10b	-0.41944155
27	0xbd52a3c5	-0.051425714
28	0xbeced13d	-0.4039401
29	0xbebe3586	-0.3715021
30	0xbeafe19a	-0.34351808
31	0xbec81e21	-0.39085487
32	0x3c67ef96	0.014156243
33	0xbec9003d	-0.39257994
34	0x3cdc55d9	0.026896404
35	0x3c49fbeb	0.012328128
36	0xbeb87437	-0.36026165
37	0xbeb53849	-0.35394505
38	0xbed3ad0b	-0.4134296
39	0xbee5ae9f	-0.44859788
40	0xbec73f6d	-0.38915578
41	0xbed6750b	-0.41886172
42	0xbec0ec66	-0.37680358
43	0xbebee4bf	-0.37283894
44	0xbeb2052c	-0.3476957
45	0xbeb1b5b0	-0.3470893
46	0xbec5044c	-0.3847984
47	0xbd30d9c9	-0.043176446
48	0xbeda0fd7	-0.4259021
49	0xbba416d8	-0.005007606
50	0xbd653146	-0.055955194
51	0xbd3c8d6a	-0.0460333
52	0xbeb56d21	-0.3543482
53	0xbec68e97	-0.38780662
54	0xbed64396	-0.4184844
55	0xbec91289	-0.39271954
56	0xbec2d540	-0.38053322
57	0xbed99ead	-0.42503873
58	0xbec807f4	-0.39068568
59	0xbecd91aa	-0.40150195
60	0xbed73783	-0.4203454
61	0xbeb58eef	-0.35460612
62	0xbedde2cf	-0.43337104
63	0xbec35966	-0.38154143
64	0xbec66b9d	-0.38753977
65	0xbd10dc76	-0.035366498
66	0xbeb5ce87	-0.3550913
67	0xbd32fd12	-0.043698378
68	0xbee77bd2	-0.45211655
69	0xbebc0c6f	-0.36728236
70	0xbece87fd	-0.40338126
71	0xbec4b10c	-0.38416326
72	0xbec2949d	-0.38004008
73	0xbeb146ba	-0.34624273
74	0xbec526ef	-0.38506266
75	0xbec0d7cd	-0.37664643
76	0xbcb94d56	-0.022619884
77	0xbee00af1	-0.43758348
78	0xbec73905	-0.3891069
79	0xbca54405	-0.020174036
80	0xbec2fad4	-0.38081992
81	0xbed98675	-0.42485395
82	0xbead18d2	-0.33808
83	0xbec41f8f	-0.38305327
84	0xbee4fab0	-0.4472251
85	0xbebdaa02	-0.37043768
86	0xbed6b13d	-0.41932097
87	0xbed308d0	-0.4121766
88	0xbec1eeef	-0.37877604
89	0xbec026fe	-0.3752975
90	0xbece1743	-0.40252122
91	0x3b113c04	0.0022161016
92	0xbeafaecd	-0.3431305
93	0xbed5dbfb	-0.41769394
94	0xbc9d3b65	-0.01919336
95	0xbee27b85	-0.44234863
96	0xbed78dc6	-0.42100352
97	0xbeda448d	-0.42630425
98	0xbebd034d	-0.3691658
99	0xbec95dc4	-0.3932935
100	0xbec525b5	-0.3850533
101	0xbd6b3238	-0.05742094
102	0xbedd22a8	-0.43190503
103	0xbeb93632	-0.3617416
104	0xbebcf965	-0.36909023
105	0xbed4738d	-0.41494408
106	0xbed73755	-0.42034402
107	0xbea70934	-0.3262421
108	0xbece1990	-0.40253878
109	0xbd5cbb99	-0.053889845
110	0xbeb57371	-0.35439637
111	0xbec1bd2c	-0.3783964
112	0xbec93850	-0.39300776
113	0xbed9b3be	-0.42519945
114	0xbed40887	-0.41412756
115	0xbee16860	-0.44024944
116	0xbed61b0b	-0.41817507
117	0xbee72f01	-0.4515305
118	0xbedfbe65	-0.43699947
119	0xbebdb0f0	-0.37049055
120	0xbed58408	-0.41702294
121	0x3be4888a	0.0069742845
122	0xbcc743a6	-0.02432425
123	0xbeba36eb	-0.36370024
124	0xbebf3660	-0.37346172
125	0xbedc4cf1	-0.43027452
126	0xbeb8cb19	-0.3609245
127	0xbed2bd57	-0.4116008
128	0xbeb775ef	-0.35832164
129	0xbeb94e51	-0.36192563
130	0xbeb58329	-0.3545163
131	0x3cb5f469	0.02221127
132	0xbce129cf	-0.027485756
133	0xbee06554	-0.43827307
134	0xbc61b94b	-0.013777087
135	0xbec6f208	-0.3885653
136	0xbeda4497	-0.42630455
137	0xbedb50fb	-0.4283522
138	0xbb469cce	-0.0030305865
139	0xbebe970f	-0.37224624
140	0xbc5c9b4b	-0.013464759
141	0xbec025f9	-0.3752897
142	0xbcfa509a	-0.030556012
143	0xbedcb8fc	-0.43109882
144	0x3bd768dc	0.0065737795
145	0xbec39984	-0.3820306
146	0x3a90cade	0.0011046787
147	0xbece8273	-0.403339
148	0xbebf2ae1	-0.37337402
149	0xbd0ce06c	-0.034393713
150	0x3cdaeeec	0.026725255
151	0xbedf1259	-0.43568686
152	0xbecabbe6	-0.3959648
153	0xbecf3bcd	-0.40475312
154	0xbcbb9d29	-0.022902088
155	0xbeb7d137	-0.35901806
156	0xbeea541f	-0.45767304
157	0xbcd6607a	-0.02616905
158	0xbebd3f70	-0.3696246
159	0xbeb2d45a	-0.34927636
160	0xbece6113	-0.40308437
161	0xbed2a51b	-0.4114159
162	0x3c38f976	0.011289945
163	0xbed2e140	-0.41187477
164	0xbeada1b4	-0.33912432
165	0xbd526437	-0.051365104
166	0xbeabe2b3	-0.33571395
167	0xbce7591f	-0.028240738
168	0x3bbd5d44	0.0057789404
169	0xbee2b9f6	-0.44282502
170	0xbecd714a	-0.40125495
171	0xbcc2e698	-0.023791596
172	0xbec112ca	-0.37709647
173	0x3b05e7e1	0.00204324
174	0xbec1793b	-0.37787804
175	0xbec74fd5	-0.38928095
176	0xbebfd0d5	-0.37464014
177	0xbed0b00d	-0.40759316
178	0xbd0bcf7c	-0.03413342
179	0xbec385c2	-0.38187987
180	0xbed32777	-0.41241047
181	0xbea7f75b	-0.32805905
182	0xbc2fad9b	-0.010722543
183	0xbecc32be	-0.39882463
184	0x3be478f9	0.006972429
185	0xbeb5b8f8	-0.35492682
186	0xbedde3ce	-0.43337864
187	0xbec0a17c	-0.37623203
188	0x3bd530ff	0.006506085
189	0xbeca671c	-0.3953179
190	0xbd6890b4	-0.056778625
191	0xbeb8bf60	-0.36083508
192	0xbedb3cec	-0.42819917
193	0xbed78f51	-0.4210153
194	0xbebd6db3	-0.36997756
195	0xbec15a92	-0.37764412
196	0xbeca91e5	-0.39564434
197	0xbeb9527e	-0.3619575
198	0xbea4aef8	-0.3216474
199	0xbec7e18b	-0.39039263
200	0x3d0c7db2	0.03429956
201	0xbec8e48e	-0.39236873
202	0xbedf775c	-0.4364575
203	0xbeca69c0	-0.39533806
204	0x3ce7acb2	0.02828059
205	0x3c9637e6	0.018337201
206	0xbcb6094a	-0.022221226
207	0xbcef6c0d	-0.029226327
208	0xbec9241b	-0.3928536
209	0xbecaeef3	-0.3963543
210	0xbeb2d11e	-0.3492517
211	0xbeb658cc	-0.35614622
212	0xbd159537	-0.036519255
213	0xbedc7d05	-0.43064132
214	0xbeb5447d	-0.35403815
215	0xbec934a5	-0.39297977
216	0xbebde9e7	-0.37092516
217	0xbec74c74	-0.38925517
218	0xbed893d1	-0.42300275
219	0xbecbaeb9	-0.3978174
220	0xbedbbbaf	-0.4291663
221	0xbc8c7c52	-0.017149124
222	0xbedd8bfc	-0.43270862
223	0xbec98a24	-0.39363205
224	0xbc0bd0ba	-0.008533651
225	0xbec353f0	-0.38149977
226	0xbebb51bc	-0.36585796
227	0x3c4f6623	0.012658629
228	0xbeac6988	-0.33674264
229	0xbebbe945	-0.36701408
230	0x3c253894	0.01008429
231	0xbeafb848	-0.34320283
232	0xbec30fc9	-0.3809798
233	0xbebae286	-0.3650095
234	0xbc86bf5b	-0.016448667
235	0xbed0c55a	-0.40775567
236	0xbcac82e1	-0.021058502
237	0x3c117a6e	0.008879287
238	0xbbdf04dc	-0.006805999
239	0xbc1d9316	-0.009617588
240	0xbebf4b2b	-0.37362036
241	0xbed2154f	-0.41031882
242	0xbee6da83	-0.45088586
243	0xbd7b7109	-0.061387096
244	0xbed6ba27	-0.41938898
245	0xbeecb457	-0.46231338
246	0xbedc18dc	-0.42987716
247	0xbedd773c	-0.4325503
248	0xbd47f3f4	-0.048816636
249	0x3d11075f	0.03540742
250	0xbee52d17	-0.44760963
251	0xbcd1db9c	-0.025617413
252	0xbec45ea7	-0.38353464
253	0xbebb83ee	-0.36624092
254	0xbeca4ad3	-0.3951021
255	0xbecd0c19	-0.40048292

layer_stack.4.weight f4 [16, 512]
0	0xbbc85abf	-0.0061143334
1	0xbbf6f9b9	-0.0075370935
2	0xbc92e243	-0.017930156
3	0xbd278358	-0.040896744
4	0xbd47028a	-0.048586406
5	0xbd395e4c	-0.045255944
6	0x3d0efacd	0.03490715
7	0x3c3ee0c8	0.011650272
8	0x3bbc27ed	0.005742064
9	0x3cc8525a	0.02445333
10	0x3c294500	0.010331392
11	0x3bd5181b	0.0065031177
12	0xbd250233	-0.0402853
13	0x3d11ed7f	0.035626885
14	0x3ce6d28e	0.028176572
15	0xbd2f8eea	-0.042860903
16	0x3af754b5	0.0018869849
17	0xbd01c7ea	-0.031684794
18	0x3cec58af	0.028850881
19	0xbd439ec4	-0.047758833
20	0x3bca7f2b	0.0061797104
21	0xbd144d3b	-0.036206465
22	0xbd2b2bcd	-0.04178982
23	0x3cb8b7a3	0.022548502
24	0x3c9b4a0a	0.018956203
25	0x3d094321	0.033511285
26	0xbc3a04c7	-0.011353678
27	0x3c875229	0.01651867
28	0xbc2b1fe6	-0.010444617
29	0x39c2bbd0	0.00037142495
30	0x3b91c02c	0.0044479575
31	0xbd1f7a4b	-0.038934987
32	0xbd4b9f6a	-0.049712576
33	0xbd14bc7b	-0.03631256
34	0x3b9d2288	0.004795376
35	0xbcdca15d	-0.026932413
36	0x3bd23226	0.0064146696
37	0x3ce20ca4	0.027593918
38	0x3c161181	0.009159447
39	0xbd25e53d	-0.04050182
40	0xbd0ded8f	-0.03465038
41	0xbc8fda7d	-0.017560238
42	0x3c313d7d	0.010817883
43	0xbc2459c3	-0.0100311665
44	0x3c79656b	0.015221934
45	0x3c50cbe7	0.012743927
46	0xbd4cc374	-0.049991086
47	0x3cebe8eb	0.028797587
48	0x3c7c5da8	0.015403189
49	0x3cbdfb2b	0.023191055
50	0xbbeb1e70	-0.0071752593
51	0x3d08e81f	0.033424493
52	0x3bd0bdd0	0.0063702837
53	0xbb2db384	-0.0026504705
54	0xbcc0d228	-0.02353771
55	0xbd0c1fc7	-0.034209993
56	0xbd2e780c	-0.042594954
57	0x3c9e6563	0.019335454
58	0xbcabebde	-0.020986494
59	0xba7fc27f	-0.000975646
60	0xbd0c41da	-0.03424249
61	0xbd064d8f	-0.03278881
62	0xbd4b29fe	-0.049600594
63	0xbc88b023	-0.016685551
64	0x3c6e7754	0.014554817
65	0xbbf8fe26	-0.007598656
66	0x3d0cff05	0.034422893
67	0xbcad78e9	-0.021175819
68	0x3ca24b79	0.019811379
69	0xbd4c10d9	-0.049820755
70	0xbcdfa6ba	-0.027301181
71	0xbc768a07	-0.015047557
72	0x3d1c2714	0.038123205
73	0xbc97f3b1	-0.018548818
74	0xbb39e4f5	-0.0028365229
75	0x3d05cdce	0.032666974
76	0xbc62392f	-0.013807579
77	0xba617213	-0.0008600067
78	0xbd35c8bb	-0.044380885
79	0xbd07a0bb	-0.03311227
80	0xbc33247d	-0.010933992
81	0xbc26ddf8	-0.010184757
82	0xbd1b4208	-0.03790477
83	0xbd191c99	-0.03738079
84	0xbc9cb458	-0.019128963
85	0x3d18b2b5	0.037279803
86	0xbd4f6c22	-0.050640233
87	0x3c9a16d4	0.018809713
88	0x3b8b7605	0.0042560124
89	0x3ce4e77e	0.027942415
90	0xbcb1206a	-0.021621902
91	0x3c7b1e15	0.015326996
92	0x3cc27037	0.023735149
93	0xbc8ac66a	-0.016940314
94	0xbd053466	-0.032520674
95	0xbd2875d2	-0.041127987
96	0xbcfb811c	-0.030701213
97	0x3c960cd9	0.018316673
98	0xbc0b7551	-0.008511857
99	0xbc3de82a	-0.011590997
100	0x3c04fc95	0.008116861
101	0x3cd93b8f	0.026517658
102	0x3cdd3ea5	0.02700741
103	0xbc21d85a	-0.009878242
104	0x3d18169b	0.037130933
105	0x3c06a071	0.008216963
106	0x3c09af2e	0.0084035825
107	0x3be4f819	0.0069875834
108	0xbcb42fd9	-0.021995472
109	0xbb7e56e9	-0.0038809127
110	0xbc45eb7e	-0.0120800715
111	0x3c3bbe53	0.011458951
112	0xbc887c51	-0.016660841
113	0xbcb0ab90	-0.021566182
114	0x3d0f1a33	0.034937095
115	0xbd47b4db	-0.04875646
116	0xbcdfa5b1	-0.027300688
117	0xbd0a0998	-0.033700556
118	0x3c7bdf20	0.015373021
119	0xbd31794e	-0.043328576
120	0xbd2c2d0a	-0.04203514
121	0xbca327d1	-0.019916447
122	0x393b595c	0.00017866999
123	0x3c501421	0.012700112
124	0xbd1f7616	-0.038930975
125	0x3c988565	0.018618295
126	0xb9983d88	-0.00029037544
127	0xbd3f5b6c	-0.046718046
128	0xbd0e5ec5	-0.034758348
129	0xbc83740a	-0.016046543
130	0x3c8332cf	0.016015438
131	0x3b613134	0.0034361603
132	0xbd3455c4	-0.044027105
133	0x3c1676fe	0.009183643
134	0x3c7d76cd	0.015470219
135	0xbcd30742	-0.025760297
136	0xba877c42	-0.0010336714
137	0x3cadcb9d	0.021215254
138	0x3d107480	0.035267353
139	0xbc104b64	-0.008807037
140	0xbc2c0cde	-0.010501115
141	0xbc493cc8	-0.012282558
142	0x3c7bb8b2	0.015363859
143	0xba8eee72	-0.0010904802
144	0x3c790688	0.015199311
145	0xbca4e076	-0.020126563
146	0xbc799db8	-0.015235357
147	0xbc561f67	-0.01306901
148	0xbd45316d	-0.04814284
149	0xbd1ec68b	-0.038763564
150	0xbc146b6c	-0.0090588145
151	0xbd452166	-0.048127554
152	0xbcacf7ef	-0.021114318
153	0xbc0c7a6e	-0.008574111
154	0xbcfc1991	-0.03077391
155	0xbc3f1a79	-0.011664026
156	0xbc8d9049	-0.017280715
157	0xbcfa5216	-0.03055672
158	0x3d07e873	0.033180665
159	0x3c362ef8	0.011119597
160	0xbd3d9e09	-0.046293292
161	0xbce70085	-0.02819849
162	0x3c4b5f0d	0.012412799
163	0xbb43acb2	-0.0029857573
164	0x3c18578d	0.0092982175
165	0x3c4d9690	0.012548104
166	0x3d192519	0.037388895
167	0xbc40ea33	-0.011774587
168	0x3d03bcb6	0.03216239
169	0xbba6f691	-0.005095311
170	0x3c26c27d	0.010178206
171	0x3bb2be66	0.005454826
172	0x3ca5207b	0.02015709
173	0x3ccb0d8b	0.024786731
174	0x3bc34a22	0.005959765
175	0xbc9e57ff	-0.01932907
176	0x3c5f97b3	0.013647008
177	0x3ce0227d	0.027360195
178	0xbd4846fb	-0.048895817
179	0xbd017525	-0.03160586
180	0xbc5c6951	-0.013452844
181	0xbcace8fa	-0.021107186
182	0xbc8800ba	-0.016601909
183	0x3c2dad7e	0.010600446
184	0x3c104c09	0.008807191
185	0x3b918e6d	0.0044420273
186	0xbc55cb34	-0.013048936
187	0xbca7df11	-0.020492109
188	0x3cf23253	0.029565012
189	0xbc9dafb9	-0.01924883
190	0x3bcce70b	0.0062531284
191	0x3b0d7331	0.0021583552
192	0xbc52cf8b	-0.012866865
193	0xbbc7344a	-0.0060792314
194	0xbc56ecc9	-0.013117977
195	0xbd1b250d	-0.03787713
196	0xbd2d2d6d	-0.04227965
197	0xbb78d0f7	-0.003796635
198	0xbd059c1d	-0.032619584
199	0x3b310367	0.0027010085
200	0xbce534e6	-0.027979326
201	0x3900169f	0.00012215458
202	0x3ca4687f	0.020069359
203	0x3d021384	0.031756893
204	0x3bcb5fe0	0.0062064976
205	0xbcb60566	-0.022219371
206	0xbcf2165b	-0.029551676
207	0xbd23ba14	-0.03997238
208	0x3ca45641	0.02006066
209	0x3b42486c	0.0029645218
210	0x3b314ae7	0.0027052702
211	0x3cf4ddd5	0.029890934
212	0x3cd6c4df	0.026216922
213	0x3d067b10	0.032832205
214	0xbc98c35d	-0.018647844
215	0x3ce05392	0.0273836
216	0xbd2325e3	-0.039831053
217	0x3d0b7948	0.03405121
218	0xbce4c11c	-0.027924113
219	0xbc0201be	-0.007934986
220	0x3d0a92db	0.03383146
221	0xbce640d4	-0.028107084
222	0xbc0a9819	-0.0084591145
223	0xbd04c5f8	-0.03241536
224	0xbb53ffca	-0.0032348507
225	0x3bdebac4	0.0067971665
226	0xbb057130	-0.0020361654
227	0x3cf68565	0.030092904
228	0xbb74d084	-0.003735573
229	0xbd3efd71	-0.04662842
230	0x3c8cfb5f	0.017209707
231	0xbd41e4ec	-0.047337458
232	0x3c954b7b	0.018224468
233	0x3ce35c96	0.02775411
234	0xbd24c1eb	-0.040223997
235	0xbc8f59f9	-0.017498957
236	0x3ca657da	0.020305563
237	0x3d0a94b2	0.033833213
238	0x3b6149fe	0.0034376378
239	0x3ce3b6f7	0.027797205
240	0xbcb98839	-0.022647964
241	0x3c931600	0.017954826
242	0x3ce58c4a	0.028020997
243	0xbc49ab84	-0.012308959
244	0x3c52d41a	0.012867952
245	0xbd3c6306	-0.045992874
246	0xbd333f91	-0.043761794
247	0xbbcf76e1	-0.00633131
248	0x3d19e115	0.03756817
249	0xbccb1545	-0.024790416
250	0xbcc68102	-0.024231438
251	0xbd0094e8	-0.031392008
252	0xbc390f4a	-0.011295149
253	0xbd1ab6f2	-0.037772126
254	0xbca2d221	-0.019875588
255	0x3c305828	0.010763206

layer_stack.4.bias f4 [16]
0	0xbc9e605e	-0.01933306
1	0xbd115a19	-0.035486314
2	0x41ab8db3	21.44419
3	0x3cbc689b	0.022999099
4	0x3b493bc4	0.003070579
5	0xbcebe238	-0.028794393
6	0x3cbf46a0	0.023349106
7	0x41ab55fc	21.416985
8	0xbc894792	-0.01675776
9	0xbd46dc5e	-0.048550002
10	0xbd1b07c9	-0.03784922
11	0x3c72d205	0.01482058
12	0x41aa868c	21.315697
13	0xbd2819c5	-0.0410402
14	0xbc99be4f	-0.018767504
15	0x3b1661f6	0.0022946573

layer_stack.7.weight f4 [1, 16]
0	0xbe548165	-0.20752485
1	0xbdf09897	-0.11747854
2	0x407a8fd9	3.9150298
3	0xbc610a0a	-0.013735304
4	0xbe70b485	-0.23506363
5	0xbdaf52c8	-0.08560711
6	0xbdec5539	-0.115396924
7	0x4079c7f0	3.9028282
8	0xbe2c6033	-0.16833572
9	0xbdab8576	-0.08375065
10	0xbda981b1	-0.0827669
11	0xbe5297a9	-0.20565666
12	0x407def23	3.9677207
13	0xbe4fa230	-0.20276713
14	0xbca99480	-0.020700693
15	0xbe62bc53	-0.22142152
